learn_code/model.pth (torch, 585095 bytes, 10 tensors)

model.0.weight f4 [32, 3, 5, 5]
000000 20 16 15 bd 00 68 19 bb ff 30 72 bd bc 69 b4 bc
       -0.036398053 -0.0023407936 -0.059128758 -0.022023074
000010 28 ef 29 3d f8 84 56 bc 3a a8 c1 3d 74 69 39 bd
       0.041487843 -0.013093226 0.09455915 -0.045266584
000020 20 73 02 3d 7c bc 36 bd 0c cb 98 3d de 2f 9e bd
       0.031848073 -0.044613346 0.07460603 -0.07723974
000030 94 a0 91 bc ee 8e c0 3d 80 5e 29 bc 60 7d b0 bd
       -0.017776765 0.09402262 -0.010337472 -0.086176634
000040 80 70 6d ba 10 86 79 3c 37 c9 d4 bd 9c 25 48 bd
       -0.00090575963 0.015229717 -0.10389941 -0.048863992
000050 20 a7 8c 3c e8 4a 21 3d 6c 0e c2 3d 46 ff 8e bd
       0.017169535 0.039378077 0.09475407 -0.06982283
000060 26 33 3a bd 56 7c 9f bd 80 1c db bc aa 3f 8f bd
       -0.045458935 -0.07787387 -0.026746988 -0.06994565
000070 5e 85 d7 3d 84 b4 38 3d 2a 81 a5 3d 22 f5 de 3d
       0.10523485 0.045094028 0.08081277 0.10886599
000080 24 55 23 3d 40 81 bb 3b 84 74 45 3d 00 87 84 bc
       0.03987612 0.005722195 0.04820682 -0.016177654
000090 30 82 76 3d 60 ee e8 bc dc a6 e3 3d 18 30 f4 3c
       0.06018275 -0.028433979 0.1111581 0.02980809
0000a0 2e 76 d8 bd 84 6d 26 bd 48 01 09 bc d8 db 4c bc
       -0.10569416 -0.040631786 -0.008362122 -0.012503587
0000b0 0e 89 8e 3d 22 a0 8e bd 8c 17 ca bc 2e 82 d9 bd
       0.06959735 -0.06964137 -0.024669431 -0.10620533
0000c0 3c b5 c9 bd 7e d8 ea bd a8 2b d2 3d 8e 93 3d bd
       -0.09849021 -0.11467074 0.10262233 -0.046283297
0000d0 0a e6 99 3d e0 5e 60 bd 04 bf b0 3d c8 0b a5 3c
       0.075145796 -0.05477798 0.08630183 0.02014722
0000e0 80 c1 6f 3d 75 15 63 bd 0b 51 e9 bd 70 06 cc bb
       0.058534145 -0.055440385 -0.11392411 -0.0062263533
0000f0 2a c1 b4 3d f7 f8 8a bd 56 e0 ae bd 42 8f bf bd
       0.088259056 -0.067857675 -0.085388824 -0.09353496
000100 fc 81 9e 3d 44 9b 35 3d 10 36 e0 bc 05 2c 75 bd
       0.07739636 0.044337526 -0.027369529 -0.059856433
000110 2e d5 31 bd 44 c6 1d 3d 44 dc c4 3d 44 20 c7 3d
       -0.043416195 0.03851916 0.09612325 0.09722951
000120 88 16 95 bd 80 51 d6 3b 24 f1 cf 3d 60 0d 87 bb
       -0.07279688 0.0065404773 0.10153416 -0.0041214675
000130 2e fc 9c 3d fc 82 90 3d 28 8b 96 bd 22 43 8c bd
       0.07665287 0.07056233 -0.07350761 -0.06848742
000140 20 16 8f 3b 34 fa d6 bd 5b ca c2 bd c4 a6 34 bd
       0.004366651 -0.10496941 -0.095112525 -0.044104353
000150 5c 34 65 3d 60 c9 11 bd 7e c5 d9 3d 7d 17 d7 bd
       0.055958137 -0.035592437 0.10633372 -0.10502527
000160 a7 98 bd bd 41 23 63 bd f8 a9 37 3d 58 b0 a2 3d
       -0.09257632 -0.055453543 0.04483983 0.07943791
000170 78 e4 49 bd 32 67 72 bd 98 61 f4 bc 50 68 cd 3c
       -0.04929015 -0.059180446 -0.029831693 0.025074154
000180 73 2b e1 bd 58 57 43 3d 48 58 2a 3d 3c bb 2f bd
       -0.109946154 0.04769072 0.041588098 -0.04290317
000190 f0 66 78 3c 72 4d 77 bd bc 92 05 bd bc 8e ea 3d
       0.015161261 -0.060376592 -0.03261064 0.11453006
0001a0 c4 88 d7 bc 18 06 e8 3d a8 2a b6 bc fc f4 d6 3d
       -0.026310332 0.11329287 -0.022237137 0.10495946
0001b0 75 ec da bd 18 da c1 3d 18 30 7d 3d e0 1b 0b 3b
       -0.10689632 0.09465426 0.061813444 0.0021226332
0001c0 e4 59 a3 bc b4 e8 89 3d c2 52 7b bd f0 61 bb 3b
       -0.019940324 0.06733838 -0.06135822 0.005718462
0001d0 f9 e6 e2 bd 00 33 31 3a d0 3e c5 3b 20 97 a3 bb
       -0.11079211 0.0006759614 0.0060194507 -0.0049923807
0001e0 08 b2 bd bc 3c 95 96 bd 22 5c 8b bd 66 a1 df 3d
       -0.023156181 -0.07352683 -0.06804682 0.10919456
0001f0 e0 a8 a1 bd 20 e7 92 3d c5 d0 bb bd a0 ca 8b bb
       -0.078935385 0.0717299 -0.09170679 -0.004266098
000200 b0 44 d6 3d 6a a1 8b 3d b8 3f 4c bc aa 9f da bd
       0.1046232 0.06817897 -0.012466364 -0.10674985
000210 68 dc ce 3d 88 70 f1 3c 54 cd c7 3d d6 b7 b5 bd
       0.10100633 0.029472604 0.0975596 -0.088729545
000220 9c e4 bb bc a0 f7 a2 3c c0 1b a3 3a 14 e3 e6 3d
       -0.022936158 0.019893467 0.0012444183 0.112737805
000230 00 54 d6 3b 0c 68 14 3d 6b 9d 97 bd 9a 63 db bd
       0.0065407753 0.03623204 -0.07403072 -0.10712357
000240 90 c9 96 3c 10 21 4f 3d ec 9f ce bd a0 ba bd bb
       0.01840666 0.05056864 -0.100890964 -0.0057900697
000250 18 a6 b4 bd d4 78 d3 3d 70 04 d4 bb 00 28 cf 3c
       -0.08820742 0.103257805 -0.0064702556 0.025287628
000260 0c 63 5f bd 7a b8 0b bd 6b ff 5c bd 8a 3c 51 bd
       -0.054537818 -0.034111477 -0.053954523 -0.051083125
000270 42 ee 9c 3d 7d d2 89 bd 14 3f b6 3d 1e fc bf bd
       0.076626316 -0.067296006 0.0889875 -0.093742594
000280 74 79 cd bc 08 39 b0 3c 1e 89 9f bd 30 ee 86 3c
       -0.025082327 0.02151157 -0.07789825 0.016470999
000290 b2 a0 9c bd 73 d1 d4 bd d4 da 4e 3d 8e c6 d8 3d
       -0.07647838 -0.10391512 0.05050166 0.10584746
0002a0 74 31 35 3d 26 4b bf 3d 68 7c a6 bc 82 1d 15 bd
       0.044236615 0.09340505 -0.020322993 -0.036405094
0002b0 c0 dd ba 3a 80 6e 5a 3d e0 7e e4 3d e8 07 2c bd
       0.001425676 0.053328037 0.11157012 -0.041999727
0002c0 40 a5 eb 3a f4 18 a8 bd d4 f1 6e 3d cc b2 ad bd
       0.0017978325 -0.082078844 0.058336094 -0.084813684
0002d0 ee 5e 85 3d 8a 0b 8a bd f4 e1 26 3d c0 30 36 bd
       0.06512247 -0.06740482 0.04074283 -0.044480085
0002e0 00 26 8e 3d b4 c1 53 3d 81 e6 92 bd da 5a ae 3d
       0.06940842 0.0516984 -0.071728714 0.08513422
0002f0 6e b8 a9 bd 04 23 3f 3d ac ba 56 3d 84 f2 f0 bc
       -0.0828713 0.046664253 0.052424118 -0.029412515
000300 3c 50 b9 bc 58 65 ba bd a1 49 bf bd f7 05 8f bd
       -0.022621267 -0.09101361 -0.093402155 -0.069835596
000310 e4 44 0b bd e0 e9 bf bb 00 4f d0 b9 71 0b b8 bd
       -0.034001246 -0.0058567375 -0.0003973171 -0.08986557
000320 10 11 a7 3c c6 27 de 3d e6 6f 99 3d b8 9f ba 3c
       0.020393878 0.1084743 0.07492046 0.022781238
000330 4c d7 eb 3d 5e a1 93 bd 60 1d 8f bd 48 5a a5 3d
       0.11515674 -0.07208513 -0.06988025 0.080738604
000340 e4 d0 ac bd dc 54 cc bd f0 7f 34 bc 30 a8 e0 3d
       -0.0843828 -0.09977123 -0.011016831 0.10969579
000350 ec 12 c9 3d c0 77 0a 3d fc 83 9d bc 10 84 f7 3b
       0.09818062 0.03380561 -0.019227974 0.007553585
000360 e0 4b 19 3d 5d 15 e2 bd f8 8f a4 3d 94 7f 51 3d
       0.037425876 -0.11039231 0.08035272 0.05114706
000370 22 78 01 bd 12 b2 8b 3d 8c b5 bb bd 4f c8 67 bd
       -0.03160871 0.068210736 -0.09165487 -0.056587514
000380 02 57 c9 3d b8 7d b1 3c 28 28 0b bd 10 35 46 bd
       0.098310485 0.021666393 -0.033973843 -0.048390448
000390 38 74 2f 3d 0c b5 d2 3d 38 b5 76 3d 1e 1e 8e bd
       0.042835444 0.10288438 0.060231417 -0.06939338
0003a0 a0 e0 67 bb 8f 18 c8 bd b8 f5 cd bd 68 32 f2 3c
       -0.003538169 -0.09770309 -0.10056633 0.029565051
0003b0 10 62 c9 3d 96 a9 a0 bd 8a b7 7f bd 0c 19 b1 3d
       0.09833157 -0.07844846 -0.062430896 0.086473554
0003c0 f7 f3 e9 bd f2 89 e4 3d 1c 55 c2 bd a4 ba dd 3d
       -0.11423486 0.111591235 -0.094888896 0.108266145
0003d0 a9 a9 7c bd 3c 72 6d bd 30 b4 e3 3c f8 52 cc bd
       -0.061685238 -0.05797027 0.027795881 -0.099767625
0003e0 a6 58 cb bd 64 2b 01 bd de 86 b1 bd 20 a9 fb bc
       -0.09929018 -0.03153552 -0.08668302 -0.030720294
0003f0 6a cb e6 3d c0 22 cd ba 70 40 eb bd 80 1f bb ba
       0.11269267 -0.0015650615 -0.114869 -0.0014276356

model.0.bias f4 [32]
000000 b8 b9 72 3d 4c 7c e2 3d 48 ea 06 3d 14 54 08 3d
       0.059259146 0.11058864 0.03293827 0.03328331
000010 ee e1 92 3d 40 af 96 3a b4 aa 23 3d 94 63 a3 3d
       0.07171999 0.001149632 0.039957717 0.079779774
000020 e2 3a cc bd e4 b9 3e bd 6c 6f 56 3d e8 d0 9d 3c
       -0.099721685 -0.046563998 0.052352354 0.019264653
000030 f8 ed 12 3c 30 83 58 bc 3a f3 d1 3d f8 6d 90 3c
       0.008967869 -0.013214871 0.1025147 0.017630562
000040 2e fd e9 bd 64 1d 48 3d f0 47 de 3c 30 bd 5f 3c
       -0.11425243 0.048856154 0.027133912 0.013655946
000050 70 76 f5 3b 30 5b 2e 3d c8 f2 7c 3d 10 64 69 3c
       0.0074909255 0.042567432 0.06175497 0.014245048
000060 1e e5 93 bd 6c 29 bd bc 8c eb 06 bd f4 b5 27 3d
       -0.07221435 -0.02309104 -0.03293948 0.04094501
000070 ca f6 c4 bd 0e 2e 82 bd 2e f1 c6 bd 70 f7 0c bd
       -0.09617384 -0.063564405 -0.0971397 -0.034415662

model.2.weight f4 [32, 32, 5, 5]
000000 8a 29 9e 3c 30 98 42 bb d8 a5 fd 3b 82 31 b5 3c
       0.019306917 -0.0029692762 0.0077407174 0.022118334
000010 a4 a7 92 bc dc a7 11 3c 8a de f6 3c 78 a7 1c 3c
       -0.017902203 0.008890118 0.030135412 0.009561412
000020 f1 15 89 bc 99 b9 0e 3d 70 11 64 bc 74 b9 3d bc
       -0.016734095 0.03484497 -0.013920173 -0.01157986
000030 08 03 ee 3b f4 3e db 3c 30 40 1b bb 60 82 40 bb
       0.007263545 0.026763417 -0.0023689382 -0.0029374585
000040 41 52 a1 bc 96 bc b7 3c bd 33 10 3d fe 74 dd 3c
       -0.019692542 0.022428792 0.03520559 0.027033325
000050 44 18 a2 bc d8 08 db bc e8 d3 03 bc 30 be 0f bb
       -0.019786961 -0.026737615 -0.008046128 -0.002193343
000060 ae 0a 73 bc 40 fa 31 ba f1 8a 0c bd 5a 23 9d 3c
       -0.014834089 -0.00067893043 -0.034312192 0.019181896
000070 7a 6b bf bc 5e 13 f9 3c 20 85 db ba 01 a2 85 bc
       -0.023366679 0.030404743 -0.0016748048 -0.016312601
000080 a0 97 50 3c fc 74 69 bc 3e 1a 80 bc 0f 3f 0d bd
       0.012731463 -0.014249083 -0.015637513 -0.034483965
000090 d2 b8 b5 bc 14 93 cc bc 5f 9b 08 3d ec a1 17 bc
       -0.022182856 -0.024972476 0.0333513 -0.009254914
0000a0 cc ba 35 3c 76 61 d5 bc 58 08 0b bd f5 bd 04 3d
       0.011091899 -0.02604745 -0.033943504 0.03240772
0000b0 f0 9a 63 3b 5a 08 f3 3c 60 06 40 3b 92 7d b3 3c
       0.00347298 0.029667068 0.0029300675 0.021910463
0000c0 46 80 56 bc d9 82 05 bd b8 1f 30 3c 5b d7 0e bd
       -0.013092106 -0.03259549 0.01074975 -0.034873348
0000d0 00 e8 4a bb 20 a8 f1 3b b4 6d 8d bb 00 a2 65 3c
       -0.0030961037 0.0073747784 -0.004316056 0.014015675
0000e0 90 78 12 bc 10 5a 9a 3c 58 61 04 bd 8e 22 94 3c
       -0.008939877 0.018841773 -0.032319397 0.018082883
0000f0 c8 de f9 3b 60 04 b5 3a d0 9c 93 bb bb 3b 02 3d
       0.0076254345 0.0013810508 -0.0045047775 0.031795245
000100 ca cc 36 bc 02 eb e6 3c 0f 8d 0a 3d 1c 74 52 3c
       -0.011157224 0.028188232 0.03382593 0.012845065
000110 8c 8e 0c bd a3 27 df bc 64 fe 32 3c df d1 0a 3d
       -0.03431563 -0.02724058 0.010924909 0.033891555
000120 78 04 b8 3c 0a f2 ab 3c 18 da c0 bb 10 ea 2e 3b
       0.022463068 0.020989437 -0.005885374 0.0026689805
000130 4e cd e6 3c a0 2b 5c bc 84 06 ec bc f0 3b c3 3c
       0.028174069 -0.013438135 -0.0288117 0.023832291
000140 7a af 0a bc fd 54 10 3d 58 99 27 3c 26 f9 83 bc
       -0.008464688 0.0352373 0.010229431 -0.016110014
000150 a2 b1 dd 3c 08 76 b4 3c 50 86 27 3b 58 fd bc 3b
       0.027062241 0.022028938 0.0025562234 0.0057675056
000160 f0 9e 87 bc 08 7c b9 bb c0 92 f0 3a 2e 13 f5 3c
       -0.01655528 -0.0056605376 0.0018354282 0.029916372
000170 54 a4 a2 bb 80 1b 94 b9 c6 e4 0d bd 8c 67 71 bc
       -0.004963437 -0.0002824925 -0.034642003 -0.01473416
000180 d8 31 8e 3b 14 a7 81 3c 08 9f 14 bc 40 f3 3c bb
       0.004339438 0.01582674 -0.009071119 -0.0028831512
000190 7b 95 e5 bc 6d 6e 00 3d 4e 80 00 bd a2 35 c8 3c
       -0.02802538 0.03135531 -0.03137236 0.024439637
0001a0 b6 f3 22 bc 0c a8 b5 3c f2 0d a6 3c ca 79 b2 bc
       -0.0099458005 0.022174858 0.020270322 -0.02178659
0001b0 64 3b 19 bc 50 14 d6 bb 3a 95 06 bd c8 c8 f4 3b
       -0.009352539 -0.006533183 -0.032857157 0.007470224
0001c0 99 fb 81 bc f6 7f 03 bd 0c 0d 08 bd d2 a0 8f bc
       -0.015867041 -0.032104455 -0.033215567 -0.01753274
0001d0 4c 05 ee bb 72 5d b9 bc fc f4 72 3c f5 38 0c 3d
       -0.007263815 -0.022627566 0.014828917 0.034234006
0001e0 c0 f1 c4 3b e0 a8 3e bb 40 bb 15 bc 9c 64 b9 3c
       0.006010264 -0.0029092357 -0.009138882 0.022630982
0001f0 38 cf bd bb 80 9d c2 b9 e0 0e 97 3a 35 bf 0a bd
       -0.0057925247 -0.0003711991 0.0011524819 -0.033873755
000200 9e 10 8b 3c 8c f8 b0 3c 68 51 61 bc 72 18 c7 bc
       0.016975697 0.021602891 -0.013752319 -0.024303649
000210 88 6c da 3c ac 57 db 3c a0 dc 9c bb fa fc fa 3c
       0.02666308 0.026775204 -0.0047870427 0.030638207
000220 99 b5 88 bc ac 6a 10 bc e4 c9 c1 bc 80 c0 cd 3b
       -0.016688155 -0.008814495 -0.02365584 0.0062790513
000230 67 08 84 bc 6d 8b d6 bc c0 23 b3 bc 78 39 00 bc
       -0.016117288 -0.02618953 -0.021867633 -0.007826202
000240 8e 76 ee bc 98 81 90 bc b0 b6 48 3c 79 26 06 3d
       -0.029109266 -0.01763992 0.012250587 0.032751534
000250 00 d3 ec b9 08 35 0c 3c 7c e5 f9 bc 9f b7 92 bc
       -0.00045170635 0.0085575655 -0.030504934 -0.017909823
000260 10 73 d2 3b c2 63 66 bc 03 38 b9 bc c4 d8 7c 3c
       0.006422408 -0.01406187 -0.022609716 0.01543254
000270 31 dd e2 bc 24 03 e0 bc ec c8 32 bc 14 dc d2 3c
       -0.027693363 -0.027345248 -0.010912161 0.025739707
000280 30 27 85 3b d4 97 bd 3c 3e b0 db bc 3a 2d a8 3c
       0.0040635094 0.023143686 -0.026817437 0.020529378
000290 46 e4 ee 3c 40 f3 f0 bc 68 64 ab bb 1e 21 92 3c
       0.029161584 -0.029412866 -0.005230475 0.017838057
0002a0 de da a5 bc 9c 22 af 3c 44 4a 96 bc 80 5d 21 ba
       -0.020245966 0.021378808 -0.01834596 -0.0006155595
0002b0 34 93 fa bc 9c a5 fe bc b4 76 99 bc 60 9a e6 3b
       -0.03058777 -0.031084828 -0.01873336 0.007037446
0002c0 b3 3e bc bc 90 58 e1 3b 05 11 0b 3d 7e 61 80 bc
       -0.022979116 0.0068770126 0.033951778 -0.015671488
0002d0 4c 5b 67 3c f0 94 11 3b 9c 89 a1 3c 2e 9e e1 3c
       0.014120888 0.0022214018 0.019718938 0.027541246
0002e0 28 6c 59 3c 12 11 85 3c 16 18 cb bc 78 ce 27 3c
       0.013270415 0.016243491 -0.024791759 0.010242097
0002f0 d6 ab de 3c 8e 96 a1 bc 10 fe 94 3b 60 03 3b bc
       0.027181547 -0.01972511 0.004546888 -0.011414379
000300 78 77 be 3b 90 28 55 3c aa 07 a1 3c 08 d6 a2 3b
       0.0058125816 0.013010159 0.019656975 0.004969362
000310 6a 61 fe 3c f7 58 08 3d 35 ac 8b bc 80 eb a1 3b
       0.03105231 0.03328797 -0.017049888 0.004941404
000320 25 44 02 3d a4 2a 66 3c 1a d7 e2 3c a0 b5 7c bb
       0.03180327 0.014048252 0.027690459 -0.0038560405
000330 6b 3c ff bc 80 6e ad ba 80 75 56 3b f5 c6 d5 bc
       -0.03115674 -0.0013231784 0.0032723844 -0.026095847
000340 42 ac a8 3c f4 c8 70 3c 4e 25 71 bc e0 4f 07 3b
       0.020589951 0.014696348 -0.014718367 0.0020646974
000350 e0 d2 04 bc b0 76 da bc 53 07 b0 bc ac c1 1c 3c
       -0.008106917 -0.026667923 -0.021487867 0.009567659
000360 4c 47 a0 3c 87 a4 09 bd fc 9b ce bb be e4 e7 3c
       0.019565247 -0.03360417 -0.006305216 0.028307315
000370 ce 8f 9a 3c a0 60 c4 bc 00 24 a3 3b 21 3c 85 bc
       0.0188674 -0.023971856 0.004978657 -0.016264023
000380 ce dc b2 3c 04 e7 68 bc 41 d3 91 bc 94 8d b7 3c
       0.021833804 -0.014215235 -0.017800929 0.022406377
000390 82 9b 23 bc 70 5a 12 bb db 53 c2 bc 70 17 0f 3c
       -0.009985806 -0.0022331737 -0.023721626 0.008733615
0003a0 1a b5 d6 bc 1f 57 c7 bc d7 79 05 3d c8 a2 33 3c
       -0.026209403 -0.024333535 0.0325869 0.010964103
0003b0 13 1d eb bc 10 47 71 bb 60 18 42 bb c6 19 7b bc
       -0.028700387 -0.0036816038 -0.002961658 -0.015325969
0003c0 89 70 a4 bc b3 19 fd bc 6e ba e7 3c ca a4 c4 bc
       -0.020073192 -0.030896043 0.028287139 -0.024004359
0003d0 90 2a 6f 3b f0 f8 93 3c 1e ab b9 bc 68 86 a4 3b
       0.0036493875 0.018063039 -0.022664603 0.0050209053
0003e0 70 9f 45 3c e7 70 04 bd f8 19 02 bd 79 2e c5 bc
       0.012061939 -0.032334235 -0.031763047 -0.024070011
0003f0 98 ad 58 bc fc ce 4f 3c f4 c9 80 bc 48 78 2e 3c
       -0.013224982 0.012683626 -0.015721299 0.0106487945

model.2.bias f4 [32]
000000 aa b0 d2 3c b9 87 0a bd c0 af fb 3a c8 74 bc 3c
       0.025719006 -0.03382084 0.0019202158 0.023004904
000010 26 97 f3 3c 14 3f 92 bc e6 e0 bf bc 51 4f 0f 3d
       0.02973516 -0.017852344 -0.02342267 0.03498775
000020 ad e7 82 bc 38 80 4e 3c 00 5c 91 39 f0 17 57 bb
       -0.015979612 0.012603812 0.000277251 -0.0032820664
000030 b2 bf 97 3c 02 20 95 3c c6 a6 fe 3c 10 2d 35 bc
       0.018524025 0.01820374 0.031085383 -0.011058107
000040 be 39 e7 3c 34 33 8a 3c 18 de 1d 3c f6 bf b2 3c
       0.028225776 0.016870119 0.009635471 0.02182005
000050 b7 5d d2 bc 4c 2b 1f 3c 82 24 87 3c 00 e6 c1 3b
       -0.025679452 0.009714913 0.0164969 0.0059173107
000060 ea d7 ee bc 62 bf ac 3c 74 1f 7a 3c 40 14 16 3a
       -0.02915569 0.021087352 0.015266288 0.00057250634
000070 18 62 8a bb 50 98 6c bc 87 a3 b7 bc 76 d2 8e 3c
       -0.0042231195 -0.014440611 -0.022416843 0.01743434

model.4.weight f4 [64, 32, 5, 5]
000000 a6 dd a4 3c ea ea 65 bc d2 e1 95 3c 41 04 0f bd
       0.020125221 -0.014033059 0.018296156 -0.034916166
000010 aa 31 98 3c 5f 24 ae bc 00 cc 3b 38 c2 06 a4 bc
       0.01857837 -0.021257577 4.4774264e-05 -0.020022754
000020 1e 02 02 bd f6 d3 0d bd be 0e cb 3c e6 e3 f6 3c
       -0.0317403 -0.03462597 0.024787303 0.030137967
000030 3c 08 5c bc b2 08 eb 3c 00 a3 c8 3a 08 e9 37 3c
       -0.013429698 0.02869067 0.0015307367 0.011224993
000040 20 f1 c7 3c de ba ba 3c ef 66 84 bc f8 9e d7 3c
       0.02440697 0.022794183 -0.016162364 0.02632092
000050 17 61 f5 bc 4b ac 08 3d 38 18 bb bc 99 01 0b 3d
       -0.029953523 0.033367436 -0.022838697 0.03393707
000060 e4 68 cf bc ec a2 54 bc 00 e3 78 39 86 6c fe 3c
       -0.02531857 -0.012978297 0.00023735687 0.031057607
000070 d8 a6 a8 3b 26 9f e6 3c f0 f2 40 3b c6 7e a4 3c
       0.0051468424 0.02815206 0.0029441677 0.020079982
000080 ee d6 19 bc 46 83 27 bc 4e 67 69 bc 02 b3 63 bc
       -0.009389622 -0.010224169 -0.014245821 -0.013897659
000090 3c 2b 16 3c f1 c8 0f bd 64 73 0c bd 22 57 8e bc
       0.009165581 -0.035103742 -0.034289733 -0.017375533
0000a0 54 b3 bd 3c 07 ff 01 3d 4d 88 9b bc 16 bd 19 bc
       0.0231568 0.031737354 -0.018985892 -0.0093834605
0000b0 5c f8 2e 3c 8b 76 0e 3d 40 a4 2f 3a 85 51 ae bc
       0.010679331 0.03478102 0.00067001954 -0.021279106
0000c0 0d aa 0f 3d 9e 33 f4 3c d1 20 09 3d f4 9a ee bc
       0.035074282 0.02980977 0.03347856 -0.029126622
0000d0 80 55 bd 3b 63 21 81 bc 24 2d b5 bc 66 32 e2 bc
       0.0057780147 -0.01576299 -0.022116251 -0.027611922
0000e0 ae 1a 0c bd db 2f 96 bc 62 df 59 bc 58 8f 65 3c
       -0.03420513 -0.018333366 -0.0132978875 0.014011227
0000f0 c0 5e 9b ba dc d3 50 3c 1d f3 03 3d 00 20 8d 36
       -0.0011853799 0.012745824 0.032214273 4.2058527e-06
000100 a8 cc a8 3c c0 d5 86 ba 5c 7f 26 3c a5 cf 06 3d
       0.0206054 -0.0010287091 0.010162201 0.03291287
000110 20 10 a8 3b 8f a3 0d 3d 1c 41 1f bc 18 7e 56 3c
       0.0051288754 0.03457981 -0.009720113 0.0130915865
000120 01 0f be bc db 66 8e bc 7e 56 0f bc a3 0f 03 3d
       -0.023200514 -0.01738303 -0.008748649 0.031997334
000130 da 8a e1 3c b8 2b e4 3b 6c 03 8a 3c 47 8c b1 bc
       0.02753203 0.0069632195 0.016847335 -0.021673335
000140 bf e8 08 3d 18 53 a5 bb e5 5d 01 3d 00 cc 11 39
       0.03342509 -0.005045306 0.031583685 0.00013904274
000150 dc 57 8b 3c 24 72 62 3c aa 22 f3 3c 90 09 0c 3b
       0.017009668 0.013821159 0.029679615 0.0021368004
000160 48 0a d9 3c 3a c1 d8 3c 20 8c 04 bb 59 53 fd bc
       0.02649416 0.026459325 -0.0020225123 -0.030923532
000170 00 6a 58 3b 40 62 00 bd 7e ad 8b 3c 76 fd fd 3c
       0.0033022165 -0.0313437 0.017050501 0.031004649
000180 e8 38 7b bc 13 1c d6 bc a9 a4 c1 bc 7c ed 14 bc
       -0.015333392 -0.026136434 -0.023638086 -0.009089824
000190 f2 3c dd 3c a7 cd 8f bc 6a 10 c3 3c b0 cb d0 3c
       0.0270066 -0.017554117 0.023811538 0.02548775
0001a0 9f e9 9f bc be e3 02 bd 90 57 15 3b 62 1b dc 3c
       -0.019520579 -0.031955473 0.0022787787 0.026868526
0001b0 89 28 b7 bc d0 d2 78 bb c5 36 9b bc 7e 58 48 bc
       -0.022358196 -0.003796745 -0.018947015 -0.012228129
0001c0 14 08 ad bc a0 65 92 3c c2 fe fb 3c 47 c0 92 bc
       -0.021122016 0.017870724 0.030761126 -0.01791395
0001d0 a6 a4 0f bd 5d b5 c4 bc b4 ac 44 3c 16 85 b0 3c
       -0.03506913 -0.024012262 0.012004066 0.021547835
0001e0 b1 b7 0d 3d 71 7c 0a 3d 3c ef 6a bc 2c eb 40 bc
       0.03459901 0.033810083 -0.0143392645 -0.011774819
0001f0 72 56 89 3c ca 7a 95 3c 3a 2c f3 bc 78 7a 94 3c
       0.016764853 0.018247027 -0.029684175 0.018124804
000200 02 bd 03 bd 78 30 8d 3b d0 26 72 bb 16 a7 c0 3c
       -0.032162674 0.0043087564 -0.0036949404 0.023517173
000210 14 90 b9 3c 4a 10 2f bc 98 b2 f0 3b 76 3c 05 bc
       0.02265171 -0.010685036 0.007345509 -0.008132091
000220 f2 8f f6 3c f9 de 09 3d fe 04 d7 3c d4 52 bc bc
       0.030097935 0.03365991 0.026247498 -0.022988714
000230 fc c8 98 bb 9a 15 e4 3c 26 40 bd 3c e2 df e0 3c
       -0.004662631 0.027842332 0.023101877 0.027450506
000240 90 9d 89 3c 58 64 bc bc 17 85 10 3d 44 09 88 3c
       0.016798764 -0.022997066 0.035283174 0.01660598
000250 6c 14 99 3c 2e d2 80 3c f6 d0 d4 3c fb dd eb bc
       0.018686496 0.015725221 0.025978547 -0.028792372
000260 d0 58 04 bb 02 04 90 3c 6a 50 d3 3c 40 72 ed bc
       -0.0020194538 0.017580036 0.02579518 -0.028985143
000270 6a 67 e2 3c ac 3c ab bc f0 5a 4a 3b fc 9a 56 bc
       0.027637202 -0.020902954 0.0030876957 -0.013098475
000280 c0 0d 88 bc 12 7b ec 3c 68 97 51 bc 60 56 71 bb
       -0.016608119 0.028867278 -0.012792446 -0.0036825165
000290 f0 47 13 bb ac 32 0a bd f6 f6 03 bd 20 61 b2 3b
       -0.0022473298 -0.03373973 -0.032217942 0.005443707
0002a0 d0 fb 86 3b 00 4b 66 3c ba d4 f0 3c 00 fa 63 bb
       0.004119374 0.014055967 0.02939831 -0.0034786463
0002b0 14 72 92 bc 40 2f b2 bc 59 39 8d bc e8 d4 04 3c
       -0.017876662 -0.021751046 -0.01723926 0.008107401
0002c0 8a 44 b2 bc a4 20 8c 3c b0 98 29 3b fb 3b a1 bc
       -0.021761198 0.017105408 0.0025878362 -0.019681921
0002d0 0a de 6d bc df a3 05 bd 24 53 2d 3c b7 31 9d bc
       -0.01451827 -0.032626983 0.010578904 -0.019188745
0002e0 cc cd 88 bb 92 5b c7 3c 20 ca d7 3a e0 b5 0d 3c
       -0.0041749235 0.024335656 0.0016463436 0.008649319
0002f0 54 0c 3d 3c da 92 a7 bc ea a1 88 3c c4 42 5f 3c
       0.011538584 -0.020455766 0.01667877 0.013626758
000300 c2 02 d8 bc c8 3d 6c 3c d0 e9 31 bc d0 e9 02 3c
       -0.026368503 0.014419027 -0.010858968 0.007990316
000310 e2 77 ed bc 63 ea 85 bc b6 cb b3 bc 19 a4 09 3d
       -0.028987829 -0.016347116 -0.021947723 0.03360376
000320 38 14 bb 3c 50 a3 b4 3b 24 0e ac bb e8 44 60 3c
       0.02283679 0.0055126324 -0.005250709 0.0136883035
000330 58 b4 9e bb 40 a3 ec 3b 90 64 b7 3c cc 16 cf bc
       -0.004843276 0.0072216094 0.02238682 -0.025279425
000340 98 3d f2 bc 54 d0 eb bb d0 9f 61 3b e3 51 87 bc
       -0.029570386 -0.0071964655 0.003442753 -0.016518539
000350 80 19 ab 39 b8 c0 df 3b 80 9a 99 3b ba b2 b5 3c
       0.0003263466 0.006828394 0.0046876073 0.02217995
000360 9e 82 bf bc e0 4e 81 ba de 0c 8d bc 6a 95 e6 3c
       -0.023377713 -0.0009865426 -0.01721805 0.028147418
000370 f6 b3 ff bc ac 8b 98 bc 28 11 81 3b f4 30 3a 3c
       -0.031213742 -0.018621288 0.0039388128 0.01136421
000380 32 8e fa 3c 80 6a 0a 3c 78 cb eb 3b d4 eb c6 3c
       0.030585382 0.008448243 0.007195886 0.024282373
000390 00 19 28 39 f4 62 b3 3c e0 46 9c ba b4 7c 59 bc
       0.00016031042 0.02189777 -0.0011922978 -0.01327436
0003a0 00 64 95 38 6a 33 b8 3c 3a fc 84 3c 4c 1e 3d bc
       7.1235e-05 0.022485454 0.016233552 -0.011542868
0003b0 7c 5a 98 bc a8 34 9f bc 90 11 0d 3b c4 a2 ce 3c
       -0.018597834 -0.019434288 0.002152536 0.025224097
0003c0 d3 b7 09 3d 6c 13 ba bb 8c 55 52 bc e8 6a c2 3c
       0.033622574 -0.005678585 -0.012837779 0.023732617
0003d0 38 6c d3 bc 58 ae 20 3c dd d4 b0 bc 9c 79 56 bc
       -0.025808439 0.009807192 -0.021585876 -0.013090517
0003e0 96 64 9f 3c 94 a9 ec bb 86 6b fb 3c cc 27 79 3c
       0.019457143 -0.0072223637 0.03069092 0.015207242
0003f0 20 34 ad ba 72 ee f9 bc e0 46 91 bc c2 48 e5 3c
       -0.0013214387 -0.030509207 -0.017733991 0.027988795

model.4.bias f4 [64]
000000 80 af 8c bb 4d d6 05 3d ee 6e f9 bc 5e 14 b6 bc
       -0.004293382 0.032675076 -0.030448403 -0.022226509
000010 dc a0 ae 3c 00 dc 36 b8 18 1d 70 bc 54 e5 0e bd
       0.021316938 -4.3597072e-05 -0.014655374 -0.034886673
000020 6c 1f 9a bb 90 6a 91 bb f6 4a db 3c 6c af 29 3c
       -0.004703453 -0.004437752 0.026769143 0.010356765
000030 1c 6d 3e 3c 3c 3b 03 3c a0 fe 32 3b b5 59 05 bd
       0.011622693 0.008009728 0.0027312413 -0.032556254
000040 80 21 3b bb 84 71 df bb 40 17 14 3b 38 11 a0 bc
       -0.0028553903 -0.006818952 0.0022596866 -0.01953946
000050 eb 75 8f bc 26 d6 a2 3c b6 f5 ec 3c c0 34 be ba
       -0.017512282 0.019877505 0.028925758 -0.001451157
000060 94 8d bb bc 62 85 ab 3c 52 c2 49 bc 00 8d 0d b9
       -0.022894658 0.020937625 -0.012314396 -0.00013499334
000070 74 36 c7 bc fa 85 a5 3c 38 4f 0d bd 27 40 ee bc
       -0.024317957 0.020205487 -0.034499377 -0.029083325
000080 83 cb 0e 3d ea 5a 01 bd 98 f6 c9 bb 80 5f e2 bb
       0.034862053 -0.031580843 -0.0061634295 -0.006908357
000090 00 99 e5 bc 30 29 47 bb 2e 4f 5f bc 9b ba 04 bd
       -0.028027058 -0.003038954 -0.013629718 -0.032404523
0000a0 d4 fc f7 bc 0a da 94 bc d0 64 8c 3b 70 73 7a 3c
       -0.030271925 -0.018170375 0.0042844787 0.0152863115
0000b0 80 be df b9 e3 ab e7 bc 14 60 37 bc 99 c9 e2 bc
       -0.00042675808 -0.028280204 -0.01119234 -0.02768402
0000c0 58 2e d8 bb a0 1f 6b bb a4 5d 3c 3c 78 92 60 3c
       -0.0065973215 -0.0035877004 0.011496935 0.013706796
0000d0 bf d0 c4 bc 7e a1 98 3c 55 f2 fa bc 4e 03 8d bc
       -0.02402532 0.018631693 -0.030633131 -0.01721349
0000e0 de a1 bf 3c 32 db 36 bc ac ec 9c bc aa 6d e3 bc
       0.023392614 -0.011160659 -0.019155823 -0.027762253
0000f0 5c 18 09 bc e5 75 00 3d 89 fa 08 3d d7 bf 08 3d
       -0.008367624 0.031362433 0.033442054 0.033386078

model.7.weight f4 [64, 1024]
000000 24 0f 2d 3c 64 23 aa bc 82 b0 fe 3c cc c7 58 bc
       0.010562692 -0.020768829 0.031090025 -0.013231229
000010 d0 07 95 bc 52 09 d4 bc 98 66 86 3c 60 90 d1 3b
       -0.018192202 -0.02588335 0.016406342 0.0063953847
000020 fc 62 a5 bc e4 93 e3 3c 40 a4 a0 3c c8 3b f5 bb
       -0.020188801 0.02778048 0.01960957 -0.007483933
000030 66 0a f5 bc 90 a9 c7 bb d0 0f 94 bb d0 2d d7 3c
       -0.029912185 -0.0060932115 -0.0045184866 0.026266962
000040 8a bf e0 3c 6c f7 4c bc 60 18 9a 3b 5c 3e dd 3c
       0.027435083 -0.012510162 0.0047026128 0.027007274
000050 9c eb 2f 3c 0c 85 95 bc 68 21 27 3c 10 9e da 3b
       0.010737326 -0.018251918 0.010200836 0.0066716745
000060 a8 3f fb 3c 3c 96 db 3c 4c 93 59 bc 12 fb ac 3c
       0.030670002 0.026805036 -0.013279747 0.021115813
000070 80 a1 b8 bb bc 4f b3 3c 50 35 68 bc 10 28 2d 3b
       -0.0056344867 0.021888606 -0.014172867 0.0026421584
000080 d4 4d 6d bc b4 74 8c bc 98 32 6d 3c cc 04 b1 bc
       -0.014483888 -0.017145492 0.0144773945 -0.021608733
000090 5a 95 d7 bc a8 fa 72 3c c4 3d 11 3c 80 f5 b7 3c
       -0.026316334 0.014830269 0.008864824 0.02245593
0000a0 48 b1 dd 3b 20 db f7 3c dc cd 8a bc e8 49 ad 3c
       0.0067655183 0.030255854 -0.016943865 0.021153405
0000b0 8c 31 d9 3c bc 06 0d 3c b6 71 95 3c 64 20 5a bc
       0.026512884 0.008607563 0.018242698 -0.013313387
0000c0 08 7b 08 3c 4c f4 31 bc ec f7 e8 bc 94 70 b1 3c
       0.008330114 -0.010861468 -0.02843853 0.021660127
0000d0 b6 63 9f 3c 0c 58 96 bc dc 87 e3 bc b0 e7 82 3c
       0.019456726 -0.01835253 -0.027774744 0.015979618
0000e0 72 01 99 3c 30 84 f8 3b b4 1d 20 bc c6 95 9c 3c
       0.018677447 0.0075841174 -0.009772707 0.019114386
0000f0 a0 d0 f8 3b 10 10 1a 3b 10 82 cf 3c 60 7f d8 3b
       0.0075932294 0.002350811 0.025330573 0.006606981
000100 60 ab ff ba dc c1 0a 3c 8e 74 a0 3c 98 9f 9f 3b
       -0.001950603 0.008469071 0.019586828 0.00487132
000110 f8 a6 fc 3b 64 7f 9a bc 54 ef d7 bc 90 6f 45 bb
       0.007710334 -0.018859573 -0.026359238 -0.003012631
000120 74 b3 94 bc 18 8f b1 3c 8e bf 88 3c 28 61 a0 3b
       -0.018151976 0.021674678 0.016692903 0.0048943944
000130 88 17 43 3c bc 38 35 bc 5a 5a b3 bc d6 c5 e0 3c
       0.011907466 -0.01106089 -0.021893669 0.027438086
000140 20 75 32 bb f0 9c 11 bc 1e 4c ec bc 00 b9 bc ba
       -0.0027230456 -0.0088875145 -0.02884489 -0.0014398396
000150 24 11 05 bc 10 ac c1 bb 38 b7 ff 3c 18 10 89 3b
       -0.008121762 -0.005910404 0.031215295 0.0041828267
000160 48 10 ad bb a0 92 91 bc a8 44 c8 3c 30 6b 04 3c
       -0.005281482 -0.017770112 0.0244468 0.008082196
000170 b0 52 e2 bc 00 c8 68 39 fc c1 1d 3c c0 3e 16 bc
       -0.02762732 0.0002219975 0.009628769 -0.009170234
000180 60 6e a7 3c b8 ba 73 3c 84 90 fe 3c 60 f3 a0 bb
       0.020438373 0.01487606 0.03107477 -0.004911825
000190 e8 78 ad bb 6c a0 c0 bc dc 59 40 bc 74 05 d3 bc
       -0.005293954 -0.023513995 -0.011740174 -0.025759436
0001a0 54 cf 78 3c 78 fb e9 3b 30 39 62 bb 94 0f 48 bc
       0.01518615 0.007140573 -0.003451895 -0.012210745
0001b0 f8 a1 64 3c 5c 5b 15 bc 38 25 b7 bb 76 59 a7 bc
       0.013954632 -0.00911602 -0.0055891536 -0.0204284
0001c0 40 20 86 bc cc 23 97 3c f6 dd d1 3c d4 2b 0c bc
       -0.0163728 0.018449686 0.025618535 -0.008555371
0001d0 f8 34 13 bc 20 89 92 bb 44 ee c0 bc 20 01 6a bb
       -0.008984797 -0.004471913 -0.023551114 -0.0035706237
0001e0 44 b0 4f bc 68 b0 c2 bc 60 24 af 3b 30 17 6b 3b
       -0.012676302 -0.023765758 0.0053449124 0.0035871975
0001f0 40 a8 2f 3c 18 e5 2f bc c0 11 50 3c cc 30 09 3c
       0.010721266 -0.010735773 0.012699544 0.0083734505
000200 48 46 ba 3b d4 54 d9 bc 72 59 b1 3c 16 ac 9f 3c
       0.0056846477 -0.026529707 0.021649096 0.019491237
000210 4c e7 e2 3c a0 d1 45 3b 48 c4 8b 3b bc d4 7d 3c
       0.027698182 0.003018476 0.004265342 0.015492614
000220 88 f3 88 3c cc 33 5c bc d0 21 06 bb 80 c5 aa ba
       0.016717687 -0.013440084 -0.0020466931 -0.001302883
000230 5c bc 00 bc 20 6d 75 3b 58 d4 cb 3b a4 21 95 3c
       -0.007857408 0.0037449077 0.0062203817 0.018204518
000240 00 fc 56 bb 40 f2 fe bb 06 eb b1 3c 24 16 58 bc
       -0.0032804012 -0.0077803433 0.021718513 -0.0131888725
000250 a0 e2 dc 3b 60 01 e1 ba 86 ba bb bc 7a f4 e3 3c
       0.006740883 -0.0017166547 -0.02291609 0.027826536
000260 36 f9 b8 bc 02 b6 a4 bc 0a 2c e3 bc d8 da dd bb
       -0.02257977 -0.02010632 -0.02773096 -0.006770473
000270 70 9c 6d bb 44 71 3f bc b0 cd 00 bb 78 b6 33 3c
       -0.0036256574 -0.0116847195 -0.001965385 0.010968797
000280 00 dd eb b9 50 73 81 bb 10 b6 70 bc a2 4d 99 bc
       -0.0004498735 -0.003950514 -0.014691845 -0.018713776
000290 9e 9c bf bc b0 ef a6 3b 6c 40 40 3c 46 c2 94 bc
       -0.02339011 0.005094491 0.011734109 -0.018159043
0002a0 50 4a 1b 3b 4c 10 f8 bc 68 0b 3b 3c 28 dd da bc
       0.0023695417 -0.030281208 0.011416294 -0.026716784
0002b0 30 60 36 bc 88 47 87 bc dc db 38 3c 24 f9 3a 3c
       -0.011131331 -0.016513601 0.011282887 0.011411939
0002c0 7c 26 61 3c f8 3f a5 bc 94 a8 f7 3c 00 a4 b7 3c
       0.013742086 -0.020172104 0.030231752 0.022417068
0002d0 30 a8 ac bc a6 d0 f7 3c 80 e8 83 ba c8 41 a5 3b
       -0.021076292 0.030250859 -0.0010063797 0.005043242
0002e0 6e 5c bf 3c dc d7 49 bc a2 be fc bc 88 52 fa 3b
       0.023359504 -0.012319531 -0.03085262 0.007639233
0002f0 98 29 0e 3c 30 d5 8d bb 00 6b 46 3c 56 73 ab 3c
       0.008676909 -0.0043283924 0.012110472 0.02092902
000300 ec 23 17 3c 72 f9 f4 3c 00 2a 31 39 30 33 19 3b
       0.009224873 0.029904101 0.00016895682 0.0023376457
000310 28 00 cf 3c 34 26 07 bc 5e e7 85 bc 34 4a 16 bc
       0.02526863 -0.008248854 -0.016345676 -0.009172965
000320 80 d4 6f bb 80 86 ef 3b 44 67 5e 3c 8c b3 9a 3c
       -0.0036595166 0.007309735 0.013574425 0.018884443
000330 bc 2d 6e 3c d8 c5 81 bb 4c 98 7f 3c 40 a7 16 3c
       0.014537271 -0.0039603524 0.015600275 0.009195149
000340 44 4f 01 3c f0 f3 15 3c 18 c0 6c 3c b2 8e dd 3c
       0.007892434 0.0091523975 0.014450096 0.027045581
000350 c8 01 e5 3c 28 35 e7 3c c6 7f d2 3c 04 78 e2 bc
       0.02795495 0.028223589 0.025695693 -0.027645119
000360 b8 a1 25 3c 34 64 57 bc c0 3f 90 3a 3c ea ce 3c
       0.010109358 -0.013146449 0.0011005327 0.025258176
000370 24 21 75 3c 08 e0 0d 3c 88 c5 66 3c 00 24 37 3c
       0.014961515 0.00865937 0.014085181 0.011178017
000380 f8 a3 a6 bb b4 1c a8 3c 00 47 ab bc 9e 43 fa 3c
       -0.0050854646 0.0205215 -0.020907879 0.03054982
000390 a0 a6 36 3c 9c bd 25 bc dc 95 43 3c b4 17 71 3c
       0.011148125 -0.010116007 0.011937585 0.014715124
0003a0 7e 7f b8 bc 8e 8a 97 bc b0 ff 6a 3c 14 eb aa bc
       -0.02252173 -0.018498685 0.014343187 -0.020864047
0003b0 20 8e 3f bb 28 72 f3 bc 84 3c ac bc 3e b4 98 bc
       -0.0029229 -0.02971752 -0.02102495 -0.018640634
0003c0 94 b5 5d 3c d4 ea ad bc 18 e4 c9 bc 66 5e b0 bc
       0.013532061 -0.021230139 -0.024644896 -0.021529388
0003d0 5e 21 f2 bc d2 86 ea 3c 2c c9 bf 3c 76 e9 95 bc
       -0.029556926 0.02862874 0.023411356 -0.0182998
0003e0 10 45 0e 3c 0c 1d 1a 3c a8 e3 d8 3b 3c 8c ee 3c
       0.008683458 0.009406339 0.0066189356 0.029119603
0003f0 48 7b fb 3c e8 f2 f0 bc c0 bb 1f 3c 18 61 d9 3b
       0.030698434 -0.029412702 0.009749353 0.006633889

model.7.bias f4 [64]
000000 ce eb 8e 3c a4 84 6c bc 74 2a 30 3c 1a 7b 97 bc
       0.017446425 -0.014435921 0.010752309 -0.018491317
000010 1e 40 d2 3c 0a 1e c5 bc 00 7e 69 39 c6 73 cd bc
       0.02566534 -0.024062175 0.0002226755 -0.02507962
000020 d0 11 da 3c fc b2 b7 bc ca 59 a8 bc b0 fc e5 bb
       0.026619822 -0.022424214 -0.020550627 -0.007018648
000030 b0 f0 41 bc c0 35 85 3c 30 4f c7 bc 78 19 c4 bb
       -0.0118371695 0.016260982 -0.024329752 -0.0059844814
000040 da de 88 3c 20 90 cf bc 10 72 17 bb ce a6 e3 3c
       0.016707826 -0.025337279 -0.0023108758 0.0277895
000050 b2 be ee 3c 00 db 8a 3c bc 01 83 3c 32 36 a8 bc
       0.029143665 0.01695013 0.015992038 -0.020533655
000060 c0 e5 64 bc b6 c1 b2 bc e4 77 d2 3c ba 98 86 bc
       -0.013970792 -0.021820884 0.025691934 -0.016430248
000070 64 5b 57 bc f0 ae 93 3c 18 32 7c 3c 80 8c 49 3c
       -0.013144348 0.018027753 0.015392803 0.012301564
000080 bc 9f 3b 3c fc f1 7d bc f0 05 81 3c 5a 34 c0 bc
       0.011451658 -0.015499588 0.015749902 -0.023462463
000090 a2 a2 84 3c b4 5c cc 3c 50 37 c7 3b d8 48 0f 3c
       0.01619083 0.024946548 0.006079592 0.008745395
0000a0 d0 05 49 bb 40 a5 71 bc f0 c8 c9 3c 80 ac 90 bb
       -0.003067363 -0.014748871 0.024631947 -0.004415095
0000b0 7c 03 b8 3c d6 29 d5 3c fa c6 e1 bc ac 67 29 bc
       0.022462599 0.026020925 -0.0275607 -0.010339659
0000c0 54 64 23 bc 6a 2d fb bc a8 86 f7 bb 86 30 f5 bc
       -0.009972651 -0.030661304 -0.007553894 -0.029930364
0000d0 a0 e0 95 bb 60 75 52 3b 40 57 ac ba 7a c5 b1 bc
       -0.0045738965 0.0032113418 -0.0013148561 -0.02170061
0000e0 50 d8 9d 3c c8 dc f4 3b 06 e2 be 3c ec 16 a1 bc
       0.019268185 0.0074726082 0.023301136 -0.01966425
0000f0 ca 3b c6 bc 2c ce ab bc 86 b3 f6 bc bc 59 9c 3c
       -0.024198432 -0.020972334 -0.0301149 0.019085757

model.8.weight f4 [10, 64]
000000 f0 d0 45 3c b0 82 f6 bd e2 ad ab 3d e0 f5 88 3c
       0.01207374 -0.120366454 0.08382775 0.016718805
000010 e4 e2 b3 bd 30 bb 8f 3c 80 f2 a7 ba ac 50 6f 3d
       -0.0878351 0.017545313 -0.001281336 0.058426544
000020 22 70 be 3d 4e 9a 85 bd 1c 68 0d 3d 30 6f 08 bd
       0.092987314 -0.06523572 0.034523115 -0.03330916
000030 80 0e a7 3d a6 da e9 bd 8c db 85 3d c8 85 80 bd
       0.081570625 -0.11418657 0.06536016 -0.06275517
000040 80 ab b4 bd 72 2d ac bd 06 c1 b9 bd 68 10 f8 3c
       -0.088217735 -0.084071055 -0.090700194 0.03028126
000050 00 20 5f 3c c8 5d 73 bd 00 28 ca b8 78 3a fa bc
       0.013618469 -0.05941561 -9.639561e-05 -0.030545458
000060 b2 bd f6 bd a4 4c e1 bd ec 60 46 3d 84 9c 0f bd
       -0.120479 -0.11000946 0.048432276 -0.035061374
000070 be 5b 85 3d 1a da c8 bd 34 13 0d 3d 16 53 a7 bd
       0.06511639 -0.098072246 0.03444214 -0.08170144
000080 50 9b c2 bd e8 55 a8 3c 9a d5 ea 3d 70 c7 6c bc
       -0.0950228 0.020548776 0.114665225 -0.0144518465
000090 7a 13 de bd 58 6f ab 3c ac f7 ef 3d 9c 5d 62 bd
       -0.108435586 0.020927116 0.117171615 -0.055265054
0000a0 02 dc 9c 3d 00 93 72 bd 30 c1 ba bc b4 a3 30 bd
       0.07659151 -0.05922222 -0.022797197 -0.04312487
0000b0 5e 60 a3 3d 7e c1 85 3d c8 be 99 3c 60 c6 4c 3d
       0.07977365 0.06531046 0.01876773 0.049993873
0000c0 d0 23 d7 3d ea 92 a4 bd 78 c1 2a bd 02 86 85 bd
       0.105048776 -0.08035834 -0.041688412 -0.065197006
0000d0 94 0b 49 3d d0 af 72 3d a0 55 b3 bc c6 01 ca bd
       0.049083307 0.0592497 -0.021891415 -0.098636195
0000e0 14 c2 6c 3d bc 53 07 bd e4 df e8 bd 58 2f 03 bd
       0.057802275 -0.03303884 -0.11370829 -0.032027572
0000f0 60 28 1f 3d 94 ae bd 3d 70 06 51 bd b6 66 88 3d
       0.038856864 0.09261814 -0.05103153 0.066602156
000100 ac 27 08 bd 80 b8 76 3b fe 1d fe bd 0e 60 ce bd
       -0.03324096 0.0037646592 -0.12408064 -0.10076915
000110 fc ff 90 3d 48 03 1b bd e8 cd a3 3d f0 4b b4 3d
       0.07080075 -0.037844926 0.07998258 0.088035464
000120 74 30 af 3d d6 9c e3 3d 06 aa e8 3d 46 22 c9 3d
       0.085541636 0.111138985 0.113605544 0.0982099
000130 ce 3e 94 bd ac 29 b5 bd 40 2d e9 bd 94 aa 98 3d
       -0.072385415 -0.08845839 -0.11385584 0.0745441
000140 c8 6d f5 3c 3c f5 15 bd 8c e4 84 bd d4 71 57 3d
       0.029959574 -0.036610827 -0.06488904 0.05259879
000150 30 8c f9 3d 30 2d d9 bd a0 e6 be bd a0 22 9f 3b
       0.12184942 -0.10604322 -0.09321332 0.0048564225
000160 d2 ed e2 3d 4c c3 45 bd f4 d0 6b 3d f0 ac cb 3c
       0.11080517 -0.048281953 0.05757232 0.024862736
000170 e0 68 73 3c 44 36 2a 3d 04 fe cb 3d 60 08 16 3d
       0.014856547 0.041555658 0.09960559 0.03662908
000180 88 bb c0 3c 3c a0 a7 bd 98 34 ad 3c 3a c1 91 bd
       0.023526922 -0.08184859 0.021143243 -0.07116933
000190 54 ff 2e 3d 40 b2 8b 3c a0 27 34 3d 20 9a 2b bd
       0.04272397 0.01705277 0.0439831 -0.041895032
0001a0 40 86 33 bb d6 29 b1 bd 76 8f d7 bd 30 89 1c 3c
       -0.0027393252 -0.08650558 -0.1052541 0.009554192
0001b0 28 f4 d8 bc 5e cd b3 bd b0 58 ac 3c 06 93 e7 bd
       -0.02648361 -0.08779405 0.021038383 -0.11307339
0001c0 62 f2 e5 3d 64 00 71 bd fc b3 a5 3d 0c 3c 51 bd
       0.112278715 -0.058838263 0.0809097 -0.051082656
0001d0 80 58 57 bd 00 6f a1 bc 40 3e 86 3d 78 36 24 bd
       -0.052574635 -0.01970625 0.06554842 -0.040091008
0001e0 04 e4 ca 3d ee f9 a9 bd d2 c7 d0 bd 54 58 0b bd
       0.09906772 -0.082996234 -0.10194363 -0.034019783
0001f0 60 19 0f 3c c2 42 b0 3d a8 f2 2c 3d 14 34 01 bd
       0.008734077 0.08606483 0.042223603 -0.031543806
000200 50 8c 28 bc 00 29 f7 bd 68 6c f9 bc 08 e6 e9 3d
       -0.010287359 -0.12068367 -0.0304472 0.11420828
000210 e0 62 af bd 62 25 ba bd d8 28 b6 3c a8 0d ea 3d
       -0.08563781 -0.090891615 0.022236273 0.11428386
000220 10 2f a9 bd c0 45 96 bc ca 5c f5 3d 96 77 f1 bd
       -0.082609296 -0.018343806 0.11980589 -0.11790387
000230 f0 cf 9c bc d0 03 f7 3d aa 6b 85 3d 58 11 d0 3c
       -0.019142121 0.12061274 0.06514676 0.025398895
000240 aa 7b a6 bd 40 95 a9 bb 58 10 ba bc 40 c3 ed 3b
       -0.08129056 -0.0051752627 -0.022712871 0.0072559416
000250 de 12 cb 3d fc 0a ec 3d 64 cf 32 3d 40 e1 3a bd
       0.09915708 0.115255326 0.043654814 -0.04562497
000260 1e 3f f8 bd 38 04 38 bd 64 70 c6 bd 00 87 d2 3a
       -0.12121414 -0.0449259 -0.096894056 0.0016061962
000270 76 b8 ea bd ac 49 7e bd fe cc c6 3d 9c 56 e7 bd
       -0.114609644 -0.062081978 0.09707068 -0.11295816
000280 ee d2 e9 3d 3c 6c 7b bd a0 0b d8 bb 38 c1 e9 3d
       0.11417185 -0.061382517 -0.0065931827 0.11413807
000290 b0 84 f6 bd b8 24 b3 3c 54 ad 1e bd 04 60 6c 3d
       -0.12037027 0.021868095 -0.038739517 0.057708755
0002a0 80 cb 9f bd 14 2e b8 3d 10 90 e4 bd 36 7b d8 3d
       -0.078024864 0.08993164 -0.1116029 0.105703756
0002b0 b8 62 b6 3d 0c 46 20 bd 88 63 58 3d 40 c3 74 bd
       0.08905548 -0.039129302 0.052829295 -0.059756517
0002c0 60 cb 38 3d d8 99 47 3d 84 31 44 bd e0 cb fd 3b
       0.04511583 0.0487307 -0.047898784 0.007745251
0002d0 ba cb e7 bd 7c fc 9e bd 90 a8 b0 bc 80 5d 33 bc
       -0.11318155 -0.07763001 -0.021564752 -0.010947585
0002e0 ac 5f 03 bd 44 46 ed 3d e8 b5 75 bd 48 33 f5 bd
       -0.03207366 0.11585668 -0.059987932 -0.11972672
0002f0 c0 bc 31 bd e0 8b a9 bc 76 a5 ff 3d 88 05 59 3d
       -0.043392897 -0.02069658 0.12482731 0.05298379
000300 4c 79 29 3d dc c3 6d 3d 94 45 29 bd 40 db 2a 3c
       0.041375443 0.058048114 -0.04132612 0.01042825
000310 90 fe c3 bc 08 7f 91 3d b6 68 ee 3d 88 59 ca bd
       -0.023925096 0.071043074 0.11641066 -0.09880358
000320 e0 22 02 3c f0 7f cb bc e0 82 db 3d 94 42 2f bd
       0.007942885 -0.024841279 0.10718322 -0.042788103
000330 68 7b 81 3d 80 9b fe bb e0 12 e1 3d 48 f7 9a 3d
       0.06322366 -0.007770002 0.10989928 0.075666964
000340 f4 ee a8 bd 2e fa e7 3d c4 c9 be bd b8 53 ef 3d
       -0.08248702 0.11327015 -0.093158275 0.1168589
000350 c0 89 2c 3b 8c e0 8e bd 8a 72 8d bd b6 9e ac 3d
       0.0026327223 -0.06976423 -0.06906612 0.08428709
000360 14 d4 b6 bd f0 a7 76 bd 2c 9c 43 bd 10 5d 62 bc
       -0.089271694 -0.06021875 -0.04775636 -0.013816133
000370 84 f3 22 bd d4 91 3e 3d 50 db 0e 3c c0 41 2c 3d
       -0.039783016 0.04652579 0.00871928 0.04205489
000380 ec 6e c1 3d a0 00 7b bc 60 25 36 3d 80 e7 ae 3c
       0.09444985 -0.015319973 0.044469237 0.021350622
000390 b0 c2 40 bc 72 ec 8b 3d 68 42 3c 3d 90 f9 b6 bd
       -0.011765167 0.06832208 0.045961767 -0.08934319
0003a0 14 5e 8c 3d b0 90 77 3d e0 d3 ad 3b c6 21 ad bd
       0.068538815 0.06044072 0.0053047985 -0.084537074
0003b0 90 1e b0 3d 80 49 56 3c 80 48 89 3d a2 d2 a7 3d
       0.08599579 0.013079047 0.067032814 0.08194472
0003c0 70 47 3c 3c 70 fe af 3c 60 83 7a 3d 60 1e 96 bb
       0.011491641 0.02148363 0.061160445 -0.0045812577
0003d0 e6 a8 a9 bd d2 49 bd bd de 03 bf bd 10 4f ca 3c
       -0.08284168 -0.09242596 -0.093269095 0.024695903
0003e0 f8 fd 19 3d 80 44 79 3c 20 74 82 3d 76 2d d6 3d
       0.03759572 0.015214086 0.06369805 0.1045789
0003f0 9e b0 9f 3d f0 00 81 3d 00 ad f8 bd 2c 55 05 3d
       0.07797359 0.06299007 -0.12142372 0.03255193

model.8.bias f4 [10]
000000 40 45 41 bd 48 63 4b bd e0 ed 90 bc 2a a1 b8 3d
       -0.047185183 -0.04965523 -0.017691553 0.090151146
000010 d0 fa 2b bc 7a 92 b5 bd e0 50 8b 3b 40 f6 5d 3b
       -0.01049681 -0.08865829 0.0042515844 0.00338687
000020 b8 89 ef bd 68 58 ef bd
       -0.1169619 -0.11686784
